…
us":"ok","timestamp":1638942649956,"user_tz":-540,"elapsed":230,"user":{"displayName":"na jung shin","photoUrl":"https://lh3.googleusercontent.com/a/default-user=s64","userId":"01932971356586854540"}},"outputId":"04a1a950-3871-468e-d998-026706113c5e"},"execution_count":31,"outputs":[{"output_type":"stream","name":"stdout","text":["Model: \"sequential_2\"\n","_________________________________________________________________\n"," Layer (type)                Output Shape              Param #   \n","=================================================================\n"," conv2d_8 (Conv2D)           (None, 224, 224, 64)      1792      \n","                                                                 \n"," max_pooling2d_8 (MaxPooling  (None, 112, 112, 64)     0         \n"," 2D)                                                             \n","                                                                 \n"," conv2d_9 (Conv2D)           (None, 112, 112, 64)      36928     \n","                                                                 \n"," max_pooling2d_9 (MaxPooling  (None, 56, 56, 64)       0         \n"," 2D)                                                             \n","                                                                 \n"," conv2d_10 (Conv2D)          (None, 56, 56, 128)       73856     \n","                                                                 \n"," max_pooling2d_10 (MaxPoolin  (None, 28, 28, 128)      0         \n"," g2D)                                                            \n","                                                                 \n"," conv2d_11 (Conv2D)          (None, 28, 28, 128)       147584    \n","                                                                 \n"," max_pooling2d_11 (MaxPoolin  (None, 14, 14, 128)      0         \n"," g2D)                                                            \n","                                                                 \n"," flatten_2 (Flatten)         (None, 25088)             0         \n","                                                                 \n"," dropout_2 (Dropout)         (None, 25088)             0         \n","                                                                 \n"," dense_4 (Dense)             (None, 512)               12845568  \n","                                                                 \n"," dense_5 (Dense)             (None, 1)                 513       \n","                                                                 \n","=================================================================\n","Total params: 13,106,241\n","Trainable params: 13,106,241\n","Non-trainable params: 0\n","_________________________________________________________________\n"]}]},{"cell_type":"code","source":["model.summary()"],"metadata":{"colab":{"base_uri":"htt
…
